Model: "sequential_5"
_________________________________________________________________
 Layer (type)                Output Shape              Param #   
=================================================================
 conv1d_15 (Conv1D)          (None, 2500, 64)          448       
                                                                 
 batch_normalization_15 (Bat  (None, 2500, 64)         256       
 chNormalization)                                                
                                                                 
 max_pooling1d_15 (MaxPoolin  (None, 1250, 64)         0         
 g1D)                                                            
                                                                 
 dropout_20 (Dropout)        (None, 1250, 64)          0         
                                                                 
 conv1d_16 (Conv1D)          (None, 1250, 128)         24704     
                                                                 
 batch_normalization_16 (Bat  (None, 1250, 128)        512       
 chNormalization)                                                
                                                                 
 max_pooling1d_16 (MaxPoolin  (None, 625, 128)         0         
 g1D)                                                            
                                                                 
 dropout_21 (Dropout)        (None, 625, 128)          0         
                                                                 
 conv1d_17 (Conv1D)          (None, 625, 256)          98560     
                                                                 
 batch_normalization_17 (Bat  (None, 625, 256)         1024      
 chNormalization)                                                
                                                                 
 max_pooling1d_17 (MaxPoolin  (None, 312, 256)         0         
 g1D)                                                            
                                                                 
 dropout_22 (Dropout)        (None, 312, 256)          0         
                                                                 
 flatten_5 (Flatten)         (None, 79872)             0         
                                                                 
 dense_10 (Dense)            (None, 256)               20447488  
                                                                 
 dropout_23 (Dropout)        (None, 256)               0         
                                                                 
 dense_11 (Dense)            (None, 55)                14135     
                                                                 
=================================================================
Total params: 20,587,127
Trainable params: 20,586,231
Non-trainable params: 896
_________________________________________________________________
Epoch 1/10
1/2 [==============>...............] - ETA: 4s - loss: 6.6469 - accuracy: 0.0000e+00
…
